[33mWARN: gym.spaces.Box autodetected dtype as <class 'numpy.float32'>. Please provide explicit dtype.[0m
_________________________________________________________________
Layer (type)                 Output Shape              Param #   
=================================================================
input_1 (InputLayer)         (None, 6)                 0         
_________________________________________________________________
dense_1 (Dense)              (None, 32)                224       
_________________________________________________________________
dense_2 (Dense)              (None, 16)                528       
_________________________________________________________________
dense_3 (Dense)              (None, 3)                 51        
=================================================================
Total params: 803
Trainable params: 803
Non-trainable params: 0
_________________________________________________________________
_________________________________________________________________
Layer (type)                 Output Shape              Param #   
=================================================================
input_2 (InputLayer)         (None, 6)                 0         
_________________________________________________________________
dense_4 (Dense)              (None, 32)                224       
_________________________________________________________________
dense_5 (Dense)              (None, 16)                528       
_________________________________________________________________
dense_6 (Dense)              (None, 3)                 51        
=================================================================
Total params: 803
Trainable params: 803
Non-trainable params: 0
_________________________________________________________________
Random agent added 10000 new memories. Current memory_size: 10000
Episode: 0/2500, epsilon: 1.0, memory_size: 10000, priority_tree: 1.2e+04, score: -500.0
Episode: 1/2500, epsilon: 0.99, memory_size: 10000, priority_tree: 1.3e+04, score: -196.0
…
